Assets/Brains/MoveToGoal.onnx (onnx, 116020 bytes, 7 tensors)

action_model._continuous_distribution.log_sigma f4 [1, 2]
00000000: a10d ffbb 432b dd3b
-0.007783607 0.006749542

action_model._continuous_distribution.mu.bias f4 [2]
00000000: ebbd 5dbc 2e88 9d3b
-0.0135340495 0.0048074936

action_model._continuous_distribution.mu.weight f4 [2, 128]
00000000: 76d2 863c 6145 34bc c069 3f3d c05d 023c
00000010: d5c2 873c c30a 0a3c cbf0 fdbc f176 03bd
00000020: f9df 63bc 80ac a03d f190 62bd 0bea a03c
00000030: 4b3c 823b de70 973d 1058 24bd e9f9 d03d
00000040: 3f76 3b3d dbf8 f23c 66cd d2bd c3e2 f23d
00000050: c913 093d 0f27 dd3d 2e0c 193d 79bf 053d
00000060: 0420 2f3b ae47 db3b 9441 80bd 36a9 773d
00000070: 6b67 a53d ac2c bc3d 8147 25bd 1d01 7a3c
00000080: 0d26 7f3d a123 e43c c41b db3c c9a3 ad3d
00000090: 0e9d 2e3d 5f1f 4abd 2fea ff3d a6b5 d93d
000000a0: 9973 0d3d 456f 75bd 9322 293d eeea d73b
000000b0: 142c 383d 3151 82bd 6cb7 803d 6140 f63c
000000c0: 3e67 15bc 9085 d93c fe99 823d 13f9 eabc
000000d0: 72bb 06bc 8db8 43bd 9e43 ff3c 99f8 a2bd
000000e0: 56fd 453d 97ca 7bbd 1aa4 a03c 3153 debc
000000f0: 3f99 333c 49f1 3bbc 7401 2b3d 70cd 97bd
00000100: 1faf 293c 9303 9abd 6db6 2cbc a75f 893d
00000110: 20f2 adbc 3cd6 983d 6f6f 4c3d d3fb 993d
00000120: eede dfbd 64ba dcbd dc44 953d 8836 9639
00000130: d05d 42bd 9138 a63d b4c7 57bd 1bf4 74bd
00000140: e284 963d 9f71 ff3c 870d bbbc 6747 6b3d
00000150: d20b 36bd 84b0 8d3c 0f20 a53d 8068 143d
00000160: 7bb9 153d 9e3c 69bd d602 4a3d 90b1 263d
00000170: c29c b2bd de43 2bbb 31af 37bc 191d 393d
00000180: f782 743d fd53 84bc 2fa5 bd3c a323 4b3d
00000190: 9d46 51bd ad8f 2ebd 9e07 3f3d d6ea 923d
000001a0: e8a0 a1bd db64 8b3d 318b 2ebb 8db2 213d
000001b0: 9b21 b93d 842f c8bd 1a56 343d 7b70 79bd
000001c0: 56ff fe3c 682e 5f3c c8f9 18bd 1526 b0bd
000001d0: 07bf c9bc 9a3a 6c3b ed73 37bc 3882 23bd
000001e0: 21b0 593d 46bc b63d 7449 703c 95bf aebd
000001f0: 5aac 82bd 1e3a b03c 6181 ebbb 38e3 443c
00000200: a657 b5bd f5f9 8bbd 2fdc 11bc da92 873d
00000210: 7a6f 953d 211f 673c 3a10 983c 9771 5b3d
00000220: 9c84 673d 51fd aabc b28a adbd 7010 0dbd
00000230: b4c0 e03d 5ad7 593d 5148 abbd 6c81 13bd
00000240: 34d6 2dbc b06f 8fbd c237 6cbc abc0 423d
00000250: 59fe a33d 05ec 543c 096b 7a3d 870c 89bb
00000260: 6625 90bd 7a97 903d ac9c 9cbb 316e a03d
00000270: 75e8 88bd 49ad d43c f844 2b3d d8c6 333c
00000280: ba2c 9bbd 1f9e 6a3d f99c 953d 5141 603d
00000290: ccc5 273d e06d f1bc da13 e23b e9c1 19bd
000002a0: 19a5 5c3c 399b 8d3c 99f2 53bc 7f2b adbd
000002b0: 4a8d 3cbd 0c3c 853d a819 f1ba 0ec2 64bd
000002c0: 85d0 753d 0841 7a3d 4c9e 0dbd d67e 303d
000002d0: 2876 4a3d 37f9 413d 112e 3b3b 1d00 e53c
000002e0: fdf3 103d 463d 083d a90e 04bd 1af1 9f3d
000002f0: f2d0 bcbb cb37 de3d 72cc bcbc 4ea3 fa3c
00000300: 16fe 47bd 0601 29bd a978 abbd 45ea 8d3b
00000310: ecd3 ee3d b0ba 3bbd 3c4e 59bd 9336 d33b
00000320: c000 e13c 67c2 bfbd 88a5 6c3c da92 8dbd
00000330: 954d 92bd 1411 0bbd ec5c 6fbc a21c 72bb
00000340: 489b 553c 55aa 9d3d a4c0 303d e0c0 e23c
00000350: 01e1 a9bc 3540 dbbc e674 28bb 758c ca3c
00000360: fa24 17bd 7685 05bd 1e8c abbc 4cc1 4aba
00000370: b48c 5abd 7e11 57bc 9fb3 6c3d 71d2 ccbc
00000380: 7da7 17bd 2b76 99bc 93b4 adbd 6664 a13d
00000390: 315e 5f3d 2061 2d3d d33f 7e3c 1cdc aabd
000003a0: 6880 0ebd ff11 9fbc 236d e23b c43a 6fbd
000003b0: 89cb ce3c f5c9 3cbd d8f6 02ba 6560 edbc
000003c0: 2b0b f33c 50c7 a73d ec9b a9bd c132 88bd
000003d0: ce57 cfbc 7f98 0bbd 3123 dcbd e504 543c
000003e0: 2500 65bc 6e86 04bd 1bb3 d13d c79c 16bc
000003f0: b9c3 a4bc d49d ffbc 10b9 983d 6c63 cd3d
0.016457777 -0.011002869 0.04673171 0.007956922 0.016572395 0.008425417 -0.030998608 -0.032095853
-0.01390838 0.07845402 -0.05531401 0.01964285 0.0039744726 0.073945746 -0.040123045 0.102039166
0.045767065 0.02965968 -0.10293083 0.118596576 0.033466134 0.107984655 0.03736513 0.032653306
0.0026721964 0.0066918945 -0.06262508 0.060464107 0.08076366 0.09188208 -0.040351395 0.0152590545
0.062292147 0.02784902 0.026746638 0.08478505 0.042630248 -0.049346324 0.12495839 0.1063035
0.03453407 -0.059920568 0.04129274 0.006589285 0.04496391 -0.06363142 0.06284985 0.030059995
-0.009118853 0.026552945 0.06377028 -0.028683221 -0.008223401 -0.047783423 0.031160172 -0.079575725
0.048337303 -0.0614725 0.0196095 -0.027139278 0.01096183 -0.011471101 0.041749433 -0.07412231
0.0103566935 -0.07520213 -0.010541541 0.06707697 -0.021233618 0.07462737 0.04991096 0.07518735
-0.10931192 -0.10777739 0.072885245 0.00028650858 -0.047452748 0.08116258 -0.052680686 -0.05980311
0.07349564 0.031182108 -0.022833599 0.05744114 -0.044444866 0.017296083 0.08062755 0.03623247
0.03655384 -0.056942575 0.04931911 0.04069668 -0.087213054 -0.0026132981 -0.0112112025 0.045193765
0.05969521 -0.01615333 0.023150055 0.049594533 -0.051092733 -0.04261749 0.046638124 0.07173698
-0.078920186 0.06806346 -0.0026633258 0.03947692 0.09039613 -0.09774688 0.044027425 -0.060898285
0.031127613 0.013621904 -0.037347585 -0.086010136 -0.024627222 0.0036045671 -0.011197072 -0.03991911
0.053146485 0.08922629 0.01466595 -0.08532635 -0.0638053 0.021512087 -0.007187054 0.012017064
-0.08854608 -0.06834785 -0.0089025935 0.066198066 0.07296653 0.014106543 0.018562425 0.053575125
0.05652295 -0.020872744 -0.0847372 -0.034439504 0.10974255 0.05318389 -0.08363403 -0.0360121
-0.010610152 -0.070037246 -0.014417591 0.047547024 0.08007497 0.012995725 0.061137233 -0.0041824016
-0.07038383 0.07060142 -0.004779419 0.07833517 -0.06684963 0.025961535 0.04181382 0.010972701
-0.0757689 0.057279702 0.07305331 0.05474979 0.04096012 -0.029471338 0.006899339 -0.037538443
0.013467097 0.01728593 -0.012936258 -0.08455562 -0.04603318 0.06505594 -0.0018394487 -0.055849127
0.060013313 0.061097175 -0.03457479 0.04308971 0.04942909 0.04735681 0.0028561393 0.027954156
0.035388935 0.03326156 -0.032240544 0.07809658 -0.005762213 0.108504854 -0.023046706 0.030595448
-0.0488263 -0.04126074 -0.083726235 0.0043309056 0.11661515 -0.045832336 -0.053053126 0.0064457147
0.027466178 -0.09363251 0.014443763 -0.06912775 -0.07143704 -0.033951834 -0.014609557 -0.0036943336
0.01303751 0.07698504 0.043152466 0.02767986 -0.020737173 -0.026764015 -0.0025704443 0.024725178
-0.036900498 -0.03259798 -0.020940837 -0.0007734492 -0.05335684 -0.013126729 0.057788488 -0.02500269
-0.037024964 -0.018733105 -0.084817074 0.078804776 0.054533187 0.042328954 0.015518147 -0.08342764
-0.034790426 -0.01941776 0.0069099828 -0.058405653 0.025243538 -0.04609104 -0.0004995889 -0.028976629
0.029668411 0.08192313 -0.08281693 -0.066503055 -0.025310423 -0.03408098 -0.107489 0.01294062
-0.013977085 -0.032354765 0.1023924 -0.009192652 -0.02011286 -0.031203188 0.07457173 0.10028729

network_body._body_endoder.seq_layers.0.bias f4 [128]
00000000: 83a0 27bb 1385 56bd 0167 943c b9b2 37bd
00000010: f06d ab3c 4a45 13bc b88b e7bb 6b09 6cbb
00000020: 01b3 243a 051f 36bc 05f8 2d3c 2d01 c03c
00000030: a667 463d 1faa 00bc 7e25 a8bd 313f f5bd
00000040: b758 7abc c4a1 b4bc 6149 5e3d fad7 553d
00000050: 64f7 913d b97a b23c c1bf b23c 2f80 62bd
00000060: 86eb 1f3d 103d 4d3d c359 953d 66cf 5cbd
00000070: 8b1f 2f3d f670 c83b 1372 573b a02b d43c
00000080: da79 9b3c 799c b8bc 2c53 15bd 6ba7 da3c
00000090: 01c6 1d3d e72b 183d ec9c 193d 59e5 163d
000000a0: 16d4 6e3d e042 a4bb 5e16 2c3d ac23 583d
000000b0: 7369 6d3c e3dc fb3c d7e0 193c 97a2 b4b9
000000c0: b6bf 643b 3b6b 03bc e456 143d c722 a3bd
000000d0: d1a6 813c da34 453d 0ea8 e2bc 9038 373d
000000e0: 35d7 793b 6071 193d ea4f a63c f7da acbc
000000f0: c7ed e9bb 9930 c839 2fca 9c3d 717f e33c
00000100: e34d 483d f9b6 33bb 1fcb 883d 09f4 6a3d
00000110: 914b 2b3d 654a 953c 81d9 3b3a b1a4 973c
00000120: c9bd 023d e5d9 9d3c aa7e 98bc 776c 073d
00000130: 7de1 31bc 5473 d5bc d287 183d f4ff 5c3d
00000140: 173a 0f3d e291 d8bc b95d 27bd 70c4 89bd
00000150: 9b8a 7d3b f0d2 0c3d a903 f13c 1f8d 22bd
00000160: 7b30 b63b ed8b 4cbd 368a 893d ca43 eb3c
00000170: 14bc 673d 9bca 0d3c 85c4 09bd 5f1c 3c3d
00000180: cc0e 553d 8d54 4d3c 1c8e 9d3c 6369 1d3d
00000190: e50b 293d 03ee 37bc c7e1 65bd e4ba 023d
000001a0: f095 c33c 749d 153d ed45 e2bb 97a5 8a3d
000001b0: c69e 33bd d805 183d 18d8 efba ee67 773c
000001c0: 4f76 b73c d417 113d 66ed cebc 12a2 b93b
000001d0: b46b c33c f27f 893d c5c3 1a3b 2929 ad3c
000001e0: 3c57 21bd ea53 8f3c 35f0 7fbd 8b57 6c3c
000001f0: 548f 033d 76f9 263d f57c 4f3c 772a 183d
-0.002557785 -0.052373003 0.018115522 -0.044848178 0.020926446 -0.008988688 -0.0070662163 -0.0036016356
0.0006282777 -0.011115794 0.0106182145 0.02343806 0.04843869 -0.00785306 -0.08210276 -0.119749434
-0.01527994 -0.022049792 0.0542692 0.052207924 0.07127264 0.021787034 0.021819951 -0.055298027
0.039042972 0.050107062 0.07292511 -0.053908728 0.04275469 0.0061169816 0.003287439 0.025899708
0.018979002 -0.02253555 -0.036456272 0.02669116 0.03851891 0.037151244 0.037503168 0.036839817
0.05830773 -0.005012855 0.04201352 0.052768394 0.014490473 0.030744975 0.009391985 -0.00034453414
0.0034904308 -0.008021171 0.036215678 -0.079656176 0.015826615 0.048146106 -0.027668025 0.044731677
0.0038122658 0.03746164 0.020301778 -0.021100504 -0.007138941 0.0003818318 0.07655751 0.02777073
0.048902404 -0.0027422293 0.06679367 0.057361636 0.041820113 0.01822395 0.00071658945 0.018511148
0.031919274 0.01926894 -0.018615086 0.033062425 -0.010856983 -0.02605597 0.037238903 0.053955033
0.03496751 -0.02643675 -0.040860865 -0.067269206 0.0038687352 0.034380853 0.02942069 -0.039685365
0.0055599785 -0.04993813 0.06715815 0.028718848 0.05657585 0.008654262 -0.03363468 0.045925494
0.052016065 0.0125323655 0.019232802 0.038430583 0.04127111 -0.01122618 -0.05612352 0.031916514
0.023875207 0.036527112 -0.0069053085 0.06769865 -0.04385259 0.037114948 -0.0018298654 0.015100462
0.022395281 0.035423115 -0.025259685 0.0056650722 0.023855068 0.06713857 0.0023615223 0.02113779
-0.039389834 0.017496068 -0.06248494 0.014425169 0.03211911 0.04076525 0.012664069 0.037149873

network_body._body_endoder.seq_layers.0.weight f4 [128, 91]
00000000: de2c 29be 537e fa3d 915b 62bd 37f5 c33c
00000010: 445c 893d 89b5 84bd 4f8e b23d 183b 3d3d
00000020: 28ea 3f3e 5e46 713c 1fb3 fd3d 440c 933c
00000030: 8d4a 0dbd 155e 91bd 6b35 47bd 2e24 9abe
00000040: cc8c 133f 9103 98bd ca4d 13be 581f 343e
00000050: 8591 103d 2485 cc3d c58e 1e3e c497 d6bd
00000060: b93c b9bd 5e41 3fbd a6b4 623e 79e2 7d3c
00000070: 23b7 0ebe 460b 873d 3609 b5bd ba30 eb3d
00000080: b9cc d7bd 8ce9 4fbc 01bc 7cbc a139 07be
00000090: 0677 ee3d 69ad 1fbd be9d 43be d439 873d
000000a0: 6fd0 3c3e c3e4 13be f736 783d b2d1 8a3d
000000b0: 656d 963d 94a9 3b3d 1a8d 543e 7c81 833c
000000c0: 4ca8 e93c f334 a8bd aa7b d73d eb46 cfbe
000000d0: 3c33 a43d 1103 313e 83cf e13d ad59 f3bc
000000e0: f959 003f c009 043d d1e3 13bd 25bd 3f3e
000000f0: 5cb1 9d3e 369e acbe db2f 0f3b 53ad 6d3c
00000100: dd3c df3d 2476 553d cf33 b43d fa98 71bd
00000110: 897b b1bc 1d80 96bd cda6 a13e 365e 56be
00000120: 82ab 9a3d 842d 5b3d 1cb6 c5bc e33e 62bd
00000130: c95b 7b3e 3a69 103d 1275 4f3d eae2 50bd
00000140: 8195 32bd f5bb 5a3d e09a 4bba 88bd 54be
00000150: 3af0 373c 267b eabd 9e15 c73d 0fff 43bd
00000160: 7224 793d 5932 bcbd 1596 373d dd28 583d
00000170: b40e 9a3e 740b 2fbd 05a4 89bd 5b3c 4bbe
00000180: ed71 35bc 1435 693e 70cb 9c3d 99f2 f43d
00000190: 7aef 60bd 782e 843e 4aa8 b8bc 5e5c 2d3e
000001a0: 665f 5cbe 1d1b 4ebe b4ad 4ebe c3d6 b43d
000001b0: 67eb 53bc 1aeb e9bd 1073 833d 8479 303d
000001c0: 2708 e43e 1d66 003e 9602 fabd fac6 273d
000001d0: 0f22 57bb 7b6f c03d ba7f 313d df76 0cbe
000001e0: ad1b cfbc 6fef 44be 0982 673e 9283 ec3c
000001f0: 4c22 d0bd dc57 57be c9d9 25bc eff2 27bd
00000200: bbcc 003e d9b9 13bd 5463 86be 672b 2abd
00000210: d698 763e b859 6c3d 0b93 633d c749 353b
00000220: eb35 593e 49a6 acbc 1ae9 853e 7c7b b6bd
00000230: 2060 2cbe d1a8 84bd 5a35 47be 8ce5 e63b
00000240: e736 b03d 914f f7bd f104 c8bd 71c2 0c3e
00000250: 5002 bfbd 2f7d b63d ddba 70be e0c1 01bd
00000260: 8f53 91be 1246 05bd d295 84bd 702c f5bd
00000270: a21d ffbd 34ec c23d 130d 0f3e d315 d6bd
00000280: e942 d6bc a27a 113e a61c 2abe b454 cabd
00000290: 4127 09be 79ab eebd 95b7 843e de6f 5cbd
000002a0: 5f69 093d 0a21 8b3e 6c97 dcbd dcb3 dc3d
000002b0: da21 df3b d438 7dbe 8c1f d1bd fbe7 23be
000002c0: e264 b8bd f253 033d 143b 93be 9104 f63d
000002d0: 0136 94bd 071f 133c a58a ae3d 3720 8bbd
000002e0: 848d 0f3e 3fa4 00be 06dd 873d d677 233e
000002f0: 8b14 aabe 0da1 3ebe e7d1 4cbe 71e3 ffbd
00000300: 061d 26bd 146a dfbd 715d 5dbe b7e1 d9b9
00000310: 921a 85bd 50da 3f3d f6bd c3be b97f c63d
00000320: e6d4 babc 21f0 103e 8160 cabe e4f0 123f
00000330: e173 db3d 9237 13be 2bc9 7f3d 9151 0b3e
00000340: b0e6 a5be 3eef 53be 8db7 9abd 985b 203e
00000350: eace bc3d b93a 8b3e fc5a 5abd a46c 09bd
00000360: f1f9 103e 2784 263e 3462 a8be 3342 aa3d
00000370: aafa f83d dcff a73d 0866 b9bc 9d6b 3c3e
00000380: 931d 283d 6f0c a53c ec5e e03d 8804 123e
00000390: 7ca0 b0be 9cd4 343c 539f 8bbc f6ef 3dbd
000003a0: d25c efbd 8815 773e 4e4b a33b a56c 1ebd
000003b0: d77a 4dbc 7cd9 3b3e 6ab0 3bbe f94d 98bb
000003c0: 0e30 253e dff9 803d b3b0 003e c6d4 39be
000003d0: f5db b2bd 9b70 da3b 50b4 f43d 9a76 ed3d
000003e0: cd64 9b3d 1697 c7bd e70c fbbd 415f 4ebe
000003f0: a420 12be 13b4 303d 7e8e 08be 7e13 88bd
-0.16521022 0.12231126 -0.055263106 0.023920638 0.067070514 -0.064799376 0.087185495 0.046198934
0.18741667 0.0147262495 0.1238768 0.017950185 -0.034494925 -0.07098023 -0.048634928 -0.30105728
0.57636714 -0.07422555 -0.14385143 0.17590082 0.03529503 0.09986332 0.1548415 -0.10478166
-0.09044785 -0.0466932 0.22139224 0.01549589 -0.13937049 0.06593947 -0.088396475 0.11483903
-0.105370946 -0.012689959 -0.015425683 -0.13205577 0.11643796 -0.038983736 -0.19103143 0.06602827
0.18438886 -0.14442734 0.060599294 0.067782775 0.07345084 0.04581602 0.20756951 0.016052954
0.028522633 -0.08213224 0.10521634 -0.40483794 0.08017585 0.17286326 0.11025908 -0.029705847
0.5013729 0.03223586 -0.036105935 0.18724497 0.30799377 -0.33714455 0.0021848592 0.014506656
0.109002806 0.05211462 0.08798944 -0.05898378 -0.021665351 -0.073486544 0.3157257 -0.20934376
0.07552244 0.053510204 -0.024134688 -0.055235755 0.24546732 0.035256602 0.050648756 -0.050997652
-0.04359961 0.053401906 -0.00077669136 -0.20775425 0.011226708 -0.1144927 0.0972092 -0.047850665
0.060825773 -0.091892906 0.044820864 0.052773345 0.30089343 -0.042735532 -0.06720737 -0.19847243
-0.011074525 0.22774154 0.0765599 0.11960334 -0.054915883 0.25816703 -0.022541184 0.16929767
-0.21520767 -0.2012753 -0.2018345 0.08830025 -0.012934542 -0.11421795 0.06418431 0.043084636
0.4453747 0.12538953 -0.122075245 0.040961243 -0.0032826697 0.09396263 0.0433347 -0.1371722
-0.025281752 -0.19231962 0.22608198 0.028871331 -0.101627916 -0.2102961 -0.010122725 -0.041003164
0.12578098 -0.03606591 -0.26247656 -0.041545298 0.2408174 0.05770275 0.055560153 0.0027662383
0.21211974 -0.021075385 0.26154405 -0.089102715 -0.16833544 -0.06477512 -0.19453946 0.007046407
0.08604222 -0.12075723 -0.097665675 0.13746049 -0.09326613 0.089105956 -0.23508783 -0.031679034
-0.28384063 -0.032537527 -0.064738885 -0.119713664 -0.12456824 0.095177084 0.13969831 -0.104533814
-0.026154952 0.14206937 -0.16612491 -0.09879437 -0.1339388 -0.116537996 0.25921312 -0.053817622
0.033547755 0.27173644 -0.10771069 0.10776493 0.0068094553 -0.2472871 -0.10211095 -0.16006462
-0.09003617 0.03206248 -0.2875601 0.1201259 -0.07236863 0.008979565 0.08522538 -0.06793254
0.14018828 -0.12562655 0.06633954 0.15963683 -0.33218798 -0.18616123 -0.20001946 -0.12494553
-0.040555023 -0.10908905 -0.21617676 -0.00041557636 -0.064992085 0.04683906 -0.38230866 0.0969233
-0.022806596 0.14154102 -0.39526752 0.5739882 0.107154615 -0.14376667 0.062447708 0.13605334
-0.32402563 -0.20696732 -0.07554541 0.1565994 0.09219153 0.2719324 -0.053309426 -0.033550873
0.14157845 0.1626135 -0.32887423 0.08313408 0.121571854 0.08203098 -0.02263166 0.18400426
0.04104383 0.02014753 0.10955605 0.14259541 -0.3449744 0.011037018 -0.017043745 -0.046371423
-0.11687626 0.24129307 0.0049833423 -0.03867783 -0.012541494 0.18344682 -0.18329015 -0.004647967
0.16131613 0.06297659 0.12567405 -0.18147573 -0.0873336 0.0066662556 0.119484544 0.11594887
0.075875856 -0.09745614 -0.1225832 -0.20153524 -0.14270264 0.043140482 -0.13335606 -0.06644343

network_body._body_endoder.seq_layers.2.bias f4 [128]
00000000: 270f cf3d dfb8 573d 4e02 a1bb 0332 343d
00000010: 1909 263d 4857 e7bc 56e7 8f3c 3214 1e3d
00000020: ca86 273c 388f 083d b40e e03c f07d 69bc
00000030: 5910 733d 02a6 ed3c c153 943d 1854 8a3c
00000040: e4c2 9b3c 857b 4a3d 9985 753c b167 333d
00000050: 3d9f 7c3c b394 31bb 4ca6 db3c a465 cdbc
00000060: 7554 8d3c 209c e73c a30e 843c 1d90 d33c
00000070: 9dce 283d 0c65 d5bc c25c b2bb 1d8c e43c
00000080: 0d67 e23c b6b3 6e3c 6bb4 8f3c 9471 153d
00000090: a94e 1dbc 3d89 b63c 7a41 413d d193 7b3c
000000a0: bfd9 cdbb 672a ebbb 3035 8c3c efe7 5b3d
000000b0: 46bc 173d bcfc 833d 9133 bf3b 771e f0bb
000000c0: 59d8 e23c 6771 963b 4cf8 413d 865c bb3c
000000d0: 72af c33b 72cd 193d a55c ca3a 24fe 473d
000000e0: 479f 973c 2983 383d d90b 313c 39dd 2b3d
000000f0: 17f6 2cbd cb84 2e3d 3980 133c 1c8f 083d
00000100: a7bd 803d 3c82 563c 50f7 143d c13e 1cbb
00000110: 8f3c 803d cf3d 113c 1c53 bb3c 967b c13c
00000120: 223b 7f3d 4123 6c3d 0261 e13c 960b 673d
00000130: aaf5 253d a29f 1f3d dc1a d83c 8a50 a53c
00000140: ef53 e13c d148 d63c c196 093d 2b18 85ba
00000150: 16bf 6bbc 6f1b c6bc 9370 dc3c e4cf c4bb
00000160: 506e 013d feb9 0d3d 2a4b 803c 7709 a83b
00000170: 8de2 e73c a2c6 b6bc 5c0b 3a3d d7cd c53c
00000180: 6bc6 1a3d ec91 40bc ea61 8b3b 40b4 1f3d
00000190: 929c 5a3d ef6d 3b3d fa0b 873c 2a16 603d
000001a0: c39c b43c 5e05 dcba edb7 dfbc 5740 bf3b
000001b0: b679 4c3b d079 933c 7d1c 1abb 1c46 c23c
000001c0: aee9 203d efa0 073d a1fc 473d cad5 8d3d
000001d0: 8fd1 003a 88a1 453c 2863 213d abd8 543d
000001e0: 46c2 5dbd 5473 353c 809e a93c 76b5 623d
000001f0: f607 d03b d328 27bd e0e8 353d acea 243d
0.10110312 0.05266654 -0.004913605 0.043993007 0.04053602 -0.028239861 0.017566364 0.03859348
0.010225007 0.03333971 0.027350761 -0.014251217 0.059341762 0.029009823 0.07242537 0.016885802
0.01901383 0.049434204 0.014985465 0.04380006 0.015418825 -0.0027096688 0.026812695 -0.02507288
0.017252186 0.028272688 0.01612026 0.025825555 0.041212667 -0.02604916 -0.0054431865 0.027898842
0.027637029 0.014569214 0.017542085 0.03648527 -0.009601274 0.022282237 0.047181584 0.015355066
-0.006282061 -0.0071766856 0.017115206 0.053687986 0.037044786 0.0644469 0.0058350046 -0.0073278504
0.027691053 0.0045911553 0.047355935 0.022871267 0.0059718424 0.037549444 0.0015438987 0.04882635
0.018508567 0.04504696 0.010806047 0.04195902 -0.042226877 0.04260711 0.009002739 0.033339605
0.06286173 0.013092574 0.036368668 -0.0023841115 0.06261551 0.008864834 0.022866778 0.0236185
0.062312253 0.05765081 0.027512077 0.056407534 0.040517487 0.038970597 0.026379995 0.020180006
0.027505843 0.026157768 0.033591036 -0.0010154297 -0.01438882 -0.024183003 0.026909148 -0.006006228
0.031599343 0.034601204 0.015660841 0.0051280814 0.02830627 -0.022311512 0.04542099 0.024146004
0.037786882 -0.0117535405 0.0042536156 0.03899026 0.053371973 0.045759138 0.016485203 0.054708637
0.022047406 -0.0016786268 -0.027309382 0.0058365273 0.0031200475 0.01800242 -0.0023515515 0.023715071
0.039285354 0.033112463 0.04882491 0.06925543 0.0004914039 0.012062438 0.039401203 0.051964443
-0.05414035 0.01107486 0.020705462 0.055348836 0.0063486053 -0.040810417 0.04441154 0.040262863

network_body._body_endoder.seq_layers.2.weight f4 [128, 128]
00000000: adcf 163d c535 103d 60ed 113d 1f73 80bd
00000010: 6b3a 3bbd 48a0 30be dc89 1f3e 9ece 23bc
00000020: a7d4 513e 7ab5 0bbd 16d7 49bd 9195 eebd
00000030: a584 db3d af21 e43d 4811 08be 9910 3ebd
00000040: 5b34 dcbd 543b 6c3c 37f4 14bd 43aa 2b3d
00000050: c25e 8ebd 4eed 4a3d eb34 10bd d78a a03d
00000060: 85d2 363c a635 f43d 7523 c9ba 6420 edbb
00000070: 116f fd3d ac2a f43d 853f 183e ae61 a7be
00000080: 86e0 0cbe e684 793e bb14 123d 1ac2 1f3d
00000090: 15bb b93c 2498 ad3d f13f ec3d a235 823e
000000a0: 9b58 8bbd 4500 cc3d ed67 8a3d d850 263e
000000b0: 052a 443d 1f50 c9bb e19a e53d c54e 2fbe
000000c0: e65e 953d 4e1c 2b3c 1d4c 383e 4a9b c0bc
000000d0: 4da3 203d 1a59 823e 5704 dbbd a856 c5bc
000000e0: 8025 8b3d 012c cebd 144a 0cbb d273 413d
000000f0: 0257 a13d 220d 1cbc 3a59 d9bd 0c28 e6bd
00000100: 48b5 00be 9bbe d3bd 6458 083e 7d79 8b3d
00000110: 9b3d 2b3e 548b 79bd 4e55 e0bc c767 0bbd
00000120: 9702 133e 224b 78be 1832 9d3d 67d3 40be
00000130: e2dc e83c fbeb 0d3d 4d00 96bd 56da b8bd
00000140: fc99 313b b0b8 83bd 4cc7 0f3e 79f6 28be
00000150: 62c6 e5bd 7de7 4c3d cc19 9c3b beac c03d
00000160: 7c55 9abd e589 3cbe 3420 803d 5582 4c3e
00000170: 879f 543e c1e9 25bd f83b afbc fd0a 12bd
00000180: 487f 43bd 983d 92bd 6ce6 7dbd 8520 6abc
00000190: dd07 323d 97df 0abe 1a76 6e3c 371a 113d
000001a0: fbaa 1abe 2894 cb3c 6534 80bd 5369 ca3d
000001b0: b369 47bd 6b3d 153e 5442 c5bd 3e24 24be
000001c0: 4acc 05be 3a64 08be 4ee6 fabd 6299 5e3e
000001d0: 2240 153d af69 79bc ccd8 3ebd 0c7e 18bc
000001e0: d203 5abe 5d46 1e3e bf09 a23a 74a6 f93d
000001f0: b915 a03d c259 973d adcc 28bd 40cb db3d
00000200: 23b6 84bd 5b98 73bd 0779 1bbc f434 09bd
00000210: cca3 1abe b7cf cfbd 2b92 8b3d daea b63c
00000220: 4463 c43d 03e3 703a 20d5 7bbd d067 85bd
00000230: 9b0c 8abb 7d89 543d ef43 133c 0a81 943d
00000240: d0dc e63d 12f4 503d ef5e de3d 73f6 7fbc
00000250: b644 23bc fc8d bdbd cfaf 9f3c 30f5 0dbe
00000260: cef3 23bc 72d4 293e c622 3abe a69a 353d
00000270: 2dc0 f5bc 56f0 d03d 3bd5 993e 19c2 bbbc
00000280: 0958 80bc 35c3 853b 70af 5c3c e519 963d
00000290: d877 3d3d b7d4 7c3e b849 323e 769a 843e
000002a0: 2f69 96bd 7cb1 f6bd 972b 01be 7aeb 0b3e
000002b0: f5ba 423c a2f9 f5bb 64bf ce3d 519d 67bc
000002c0: 01f4 babd d398 8abb c7e2 023d 1463 813b
000002d0: 3f18 26be ab64 05bd 20f2 22bd 6ab9 4e3e
000002e0: 23c6 5dbd f4c2 83bd 1698 1d3e 912c 8c3d
000002f0: ce60 073c da11 cc3d a778 47bd f3ef 7dbe
00000300: 65f4 f9bd ccf7 5fbe e950 b03d bbe1 123e
00000310: 23f5 a03d ecdb b33d ad89 673c 5922 ae3d
00000320: 5901 7f3e 5d97 02be d166 873d 5822 ccbd
00000330: 15ea 5abd c0b8 403d 44be b8bd 7f64 9fbb
00000340: f3e9 0cbd bbfc 91bd a9e9 333e 122f a9bc
00000350: f754 fbbd 2c8c cb3d 632f b43d e17f 9f3d
00000360: de5a a33d 42e8 54be 82eb 38be 4f38 e93d
00000370: 5dd5 0abd c912 62bc aab3 6a3d 8f8e 70bb
00000380: 4cc0 e03c 2be8 60bd 0929 bcbc 4b7c 94be
00000390: 72de 64bc 0875 77bd a820 643d 0034 28bc
000003a0: 973f 94bd 1b90 9e3d 581c 2dbe 0397 403e
000003b0: 3cec 0bbd 41ba 0ebd 84cd cc3d faf2 cebd
000003c0: 7421 85bd 98bb 9b3c 1a2a cbbd 1e98 87bc
000003d0: 0665 053d ce93 26be ba44 f9bc cd5f 783e
000003e0: ed42 14be 9305 65bd e4a6 11bd 2efe e03d
000003f0: 43f0 febc 80b7 2dbe 1e10 dc39 fe36 283e
0.03681915 0.03520753 0.03562677 -0.062719576 -0.04571001 -0.17248642 0.15579933 -0.009997992
0.20491277 -0.034108616 -0.049277388 -0.11649621 0.10718659 0.11139237 -0.13287842 -0.046402548
-0.107521735 0.014418442 -0.036365714 0.04191042 -0.06951667 0.049542718 -0.035206717 0.078389816
0.01115859 0.11924295 -0.001534565 -0.0072365273 0.123747 0.119222015 0.14867981 -0.3269171
-0.13757524 0.24367103 0.0356643 0.03900347 0.022672215 0.08476284 0.11535633 0.25431544
-0.068040095 0.09960989 0.067581035 0.16241777 0.047891635 -0.0061435844 0.112111814 -0.17119892
0.07293491 0.01044376 0.17997785 -0.023511548 0.039218236 0.25458604 -0.10694187 -0.024089172
0.06794262 -0.10066987 -0.0021406459 0.047229595 0.078779235 -0.0095246155 -0.10612722 -0.11238107
-0.12569153 -0.103390895 0.13314968 0.068102814 0.1672272 -0.06092389 -0.027384426 -0.034034517
0.14356457 -0.24247411 0.0767557 -0.18830644 0.028425638 0.034648877 -0.07324276 -0.09026019
0.0027099838 -0.06431711 0.1404087 -0.16500272 -0.11219479 0.050025452 0.0047638174 0.09407948
-0.07535836 -0.18411978 0.06256142 0.19971593 0.2076398 -0.04050613 -0.0213909 -0.03565501
-0.047728807 -0.07140654 -0.061987326 -0.01428998 0.04346453 -0.13561855 0.014554525 0.03542539
-0.15104286 0.02485092 -0.062599935 0.0988337 -0.048684787 0.1457421 -0.09631792 -0.1602945
-0.13066211 -0.13319483 -0.122509584 0.21738198 0.036438115 -0.015222951 -0.046593472 -0.009307396
-0.2129052 0.15456529 0.0012362524 0.121899515 0.07816643 0.07390167 -0.04121082 0.10732126
-0.06480052 -0.05947147 -0.009489304 -0.033497766 -0.15101546 -0.1014704 0.06814989 0.022328783
0.09589246 0.0009189101 -0.06148255 -0.06513941 -0.0042129285 0.05188893 0.008988365 0.07251175
0.112725854 0.051014014 0.10857951 -0.015622723 -0.009965112 -0.09255597 0.019493012 -0.13863063
-0.010006858 0.16584948 -0.18177328 0.044336937 -0.029998863 0.102020904 0.30045494 -0.022919701
-0.015666978 0.0040821084 0.013469562 0.07329158 0.04625687 0.2469052 0.17410934 0.25899094
-0.07344281 -0.12045571 -0.12614284 0.13664046 0.011885394 -0.007506565 0.100950986 -0.014136628
-0.09128571 -0.004229644 0.031954553 0.0039485786 -0.16220187 -0.032566708 -0.03978169 0.20187917
-0.054144036 -0.06433669 0.15390047 0.06844438 0.008262826 0.099643424 -0.048699047 -0.24798565
-0.12204818 -0.21871871 0.086091824 0.14343922 0.07859256 0.08782181 0.014131946 0.08502645
0.24902858 -0.12753053 0.066114075 -0.09967488 -0.053445894 0.04705119 -0.09020665 -0.004864275
-0.0344028 -0.07128283 0.17569603 -0.020652328 -0.12272065 0.09938845 0.08798101 0.07788063
0.07976316 -0.20791724 -0.18058589 0.11387693 -0.033894885 -0.013798424 0.057300247 -0.0036706065
0.027435444 -0.054908913 -0.022968786 -0.29001078 -0.013969051 -0.060414344 0.055695206 -0.010266304
-0.07238691 0.0774233 -0.16905344 0.18807606 -0.034160838 -0.034845594 0.100001365 -0.10104938
-0.06500521 0.01901035 -0.099201396 -0.016552027 0.032567047 -0.1626732 -0.03042828 0.24255295
-0.14478655 -0.05591352 -0.03555955 0.10985981 -0.031120425 -0.16964531 0.00041973678 0.16427228
