Assets/Brains/MoveToGoal.onnx (onnx, 116020 bytes, 7 tensors)

action_model._continuous_distribution.log_sigma f4 [1, 2]
0	0xbbffdab0	-0.007808052
1	0x3ca0445c	0.019563846

action_model._continuous_distribution.mu.bias f4 [2]
0	0xbca6ddb3	-0.020369386
1	0xbbec6f19	-0.0072153923

action_model._continuous_distribution.mu.weight f4 [2, 128]
0	0x3bf978c0	0.0076132715
1	0xbc6d2c21	-0.014475853
2	0x3d382119	0.04495344
3	0x3bcde417	0.006283294
4	0x3cc88c7c	0.02448105
5	0x3cf57df9	0.029967295
6	0x3c5816cf	0.013189032
7	0xbcf33dd1	-0.029692562
8	0xbc0c1ed0	-0.008552268
9	0x3dac91c0	0.08426237
10	0xbd59b2da	-0.05314908
11	0x3c95ff2b	0.01831015
12	0x3b8fec6c	0.0043921974
13	0x3d9c4ae8	0.07631475
14	0xbd1ad208	-0.037797958
15	0x3dd48a07	0.10377889
16	0x3d4c463d	0.049871672
17	0x3cd1bf7f	0.025604008
18	0xbdb54db0	-0.08852708
19	0x3e08a0db	0.13342611
20	0x3d0814e2	0.03322304
21	0x3df5c233	0.11999931
22	0x3d18ae70	0.03727573
23	0x3da1ed14	0.07906547
24	0xbc63322a	-0.0138669405
25	0x3bb2d795	0.0054578283
26	0xbd4fb1ff	-0.05070686
27	0x3dd6b89a	0.10484429
28	0x3da5ced6	0.080960914
29	0x3d918787	0.07105928
30	0x3c200165	0.0097659575
31	0x3b3ba0a8	0.0028629694
32	0x3d8dd3c9	0.069251604
33	0x3ce87026	0.028373789
34	0x3d0ad916	0.033898436
35	0x3dbc0ee3	0.09182527
36	0x3d4119eb	0.047143858
37	0xbd1c5d5c	-0.038174972
38	0x3e00996c	0.12558526
39	0x3dd4afa8	0.10385066
40	0x3d3c83f9	0.046024296
41	0xbd44661a	-0.047948934
42	0xbbc5c8e8	-0.006035913
43	0x3b4b9d37	0.003106905
44	0x3d136ad0	0.035990536
45	0xbd5ec5ed	-0.054387975
46	0x3d8f2769	0.06989939
47	0x3cf21184	0.029549368
48	0xbbecf3f2	-0.007231229
49	0x3cb4f41a	0.022089053
50	0x3d8b8843	0.06813099
51	0xbceae39e	-0.02867299
52	0xbc02e99e	-0.007990269
53	0xbd34a67b	-0.04410408
54	0x3d2956e2	0.041342624
55	0xbda47641	-0.08030368
56	0x3d341888	0.043968707
57	0xbd5e3090	-0.05424553
58	0x3c625c0d	0.013815892
59	0xbcd7246c	-0.026262484
60	0x3daf31d2	0.08554424
61	0xbbd7ce0b	-0.0065858415
62	0x3d2210f8	0.039566964
63	0xbd9212f2	-0.0713252
64	0x3c1f9fdc	0.009742703
65	0xbda1ab9a	-0.078940585
66	0xbc352e95	-0.011058469
67	0x3d1d7aa6	0.038447045
68	0xbc44e2b0	-0.012016937
69	0x3d94e037	0.07269328
70	0x3d5b943a	0.053608157
71	0x3da7c586	0.081919715
72	0xbde33a48	-0.11095101
73	0xbdd1015d	-0.10205338
74	0x3d9273c2	0.07150985
75	0xbbb470ed	-0.005506626
76	0xbd611434	-0.054950908
77	0x3da22331	0.079168685
78	0xbd4e3605	-0.050344486
79	0xbd8292f9	-0.06375689
80	0x3d5b1b61	0.053492907
81	0x3d1b3c9c	0.0378996
82	0xbc85c328	-0.01632841
83	0x3d92d0f2	0.071687594
84	0xbd1c08bf	-0.03809428
85	0x3c609a82	0.0137087125
86	0x3db73542	0.08945705
87	0x3d21abd3	0.039470505
88	0x3cf3fa27	0.029782368
89	0xbd88a472	-0.066719905
90	0x3d4aaac1	0.04947925
91	0x3cf1eadf	0.02953094
92	0xbdb1da12	-0.08684172
93	0x3cb2f54b	0.02184548
94	0xbbe282c4	-0.006912561
95	0x3ca5537c	0.02018141
96	0x3d523c18	0.05132684
97	0x3c162f15	0.009166499
98	0x3d04fd0f	0.032467898
99	0x3d598e18	0.053114027
100	0xbd28c15d	-0.04120003
101	0xbd0ab8dc	-0.033867702
102	0x3ce06ec5	0.027396569
103	0x3d917b95	0.071036495
104	0xbd96de9f	-0.0736668
105	0x3c9aa347	0.018876685
106	0x3cb048f9	0.021519171
107	0x3d4dea90	0.050272524
108	0x3dce9e9b	0.10088845
109	0xbdcbdfc1	-0.09954787
110	0x3d5eec9c	0.054424867
111	0xbd58890d	-0.052865077
112	0x3d603cb6	0.0547454
113	0x3c4851d2	0.012226539
114	0xbcdb516f	-0.026772229
115	0xbdac7d78	-0.08422369
116	0xbce4cbaa	-0.027929146
117	0xbc8c06d5	-0.017093102
118	0xbcce7489	-0.025202053
119	0xbcc1b1ee	-0.023644414
120	0x3e225dd6	0.15856108
121	0x3e40ac48	0.1881572
122	0x3c694912	0.014238613
123	0xbda5f436	-0.0810322
124	0xbd77434f	-0.060366925
125	0xbd104b26	-0.035227917
126	0xbba29bb4	-0.004962409
127	0x3ca0db57	0.01963584
128	0xbdcaa8af	-0.09895455
129	0xbdab0140	-0.08349848
130	0xbaece190	-0.0018072594
131	0x3d912cb9	0.07088608
132	0x3da3596c	0.0797604
133	0x3b0e2c0a	0.002169373
134	0x3d55f15d	0.052232135
135	0x3d3e5530	0.04646796
136	0x3d5a1ff8	0.053253144
137	0xbc302d63	-0.010753009
138	0xbdb58816	-0.08863847
139	0xbd0c5474	-0.03426023
140	0x3dd9ab55	0.10628382
141	0x3d6bac3b	0.0575373
142	0xbdace31f	-0.084417574
143	0xbcfd9e67	-0.030959321
144	0xbc2a6000	-0.010398865
145	0xbd9f20b3	-0.07769909
146	0x3b2be731	0.002623033
147	0x3d6dbf21	0.058043603
148	0x3da303e0	0.079597235
149	0x3ceeb79f	0.029140292
150	0x3d8098e4	0.062791616
151	0x3d0e5d5a	0.034756996
152	0xbd9e69b4	-0.07735005
153	0x3d51f9d6	0.051263653
154	0x3bbbd1a3	0.0057317778
155	0x3d2ede2d	0.042692352
156	0xbd93dee9	-0.07220251
157	0x3d046d92	0.032331057
158	0x3dc27da8	0.09496623
159	0x3c06b89a	0.008222723
160	0xbd857d2d	-0.06518016
161	0x3d72c0ef	0.059266027
162	0x3d9ce25f	0.07660364
163	0x3d876917	0.06611841
164	0x3d44a76a	0.04801122
165	0xbcb795fd	-0.022410387
166	0x3c3307dd	0.010927168
167	0xbd0fc486	-0.03509953
168	0x3b2a2317	0.0025960857
169	0x3c958647	0.018252505
170	0xbd1b1b87	-0.03786805
171	0xbdb890e2	-0.09012009
172	0xbd0e25dd	-0.034704078
173	0x3d8fabef	0.070152156
174	0xbb96e0ca	-0.0046044337
175	0xbd7715b1	-0.06032342
176	0x3d82df65	0.063902654
177	0x3d7c350b	0.061574023
178	0xbd00d543	-0.031453382
179	0x3d210f10	0.039321005
180	0x3d36d89c	0.04464017
181	0x3d3b4cb1	0.045727435
182	0x3c553ec2	0.013015451
183	0x3cd42d79	0.02590059
184	0x3d0f8299	0.035036657
185	0x3d156452	0.036472626
186	0xbcac37e5	-0.021022746
187	0x3da30ad7	0.07961052
188	0x3d759725	0.059958596
189	0x3de73ef8	0.11291307
190	0xbc538057	-0.012909017
191	0x3cb88e94	0.022528924
192	0xbd15f8ac	-0.036614105
193	0xbd5ac038	-0.05340597
194	0xbd94e7fe	-0.072708115
195	0x3cc0efd1	0.023551853
196	0x3dfb27dc	0.12263462
197	0xbd11b699	-0.03557453
198	0xbd1633f0	-0.036670625
199	0x3ca8088c	0.020511888
200	0x3cbb28e6	0.02284665
201	0xbdb59346	-0.08865981
202	0x3ca2ce22	0.019873682
203	0xbd9add03	-0.07561686
204	0xbdaf78e4	-0.0856798
205	0xbcb5abc6	-0.022176635
206	0xbbf2a839	-0.0074053076
207	0xbbed2f6e	-0.00723832
208	0x3c26651d	0.010155943
209	0x3d9a13f8	0.0752334
210	0x3d30e60c	0.04318814
211	0x3d1f05de	0.038823955
212	0xbc9fc542	-0.01950324
213	0xbc8fea11	-0.017567666
214	0x3bf87b38	0.007583048
215	0x3ca64d40	0.020300508
216	0xbd11249d	-0.035435308
217	0xbce00232	-0.027344797
218	0xbb8d1f0c	-0.0043066796
219	0xbb239b29	-0.0024964309
220	0xbd237c75	-0.039913613
221	0x3c922b1c	0.017842822
222	0x3d62b22e	0.055345707
223	0xbc66a47f	-0.014077305
224	0xbccd346b	-0.025049409
225	0xbba0e31c	-0.004909886
226	0xbd8d70e6	-0.06906299
227	0x3da3a012	0.07989515
228	0x3d81a2f1	0.06329907
229	0x3d55faec	0.05224125
230	0x3c5491a3	0.012974176
231	0xbda72033	-0.081604384
232	0xbcbdde6c	-0.023177348
233	0xbcc27135	-0.023735622
234	0x3d4808ed	0.048836637
235	0xbd1d35c6	-0.03838136
236	0x3cf3e468	0.029771999
237	0xbd4cf76c	-0.050040647
238	0x3c58535f	0.013203471
239	0xbd0f8ac4	-0.035044447
240	0x3d2fc754	0.042914703
241	0x3d9f13b3	0.07767429
242	0xbd602677	-0.054724183
243	0xbd697286	-0.056993984
244	0xbd008c7a	-0.03138397
245	0xbcffa9b2	-0.031208847
246	0xbdd1fc39	-0.10253186
247	0x3c829381	0.015939476
248	0x3d2a605a	0.041595794
249	0x3d80e6af	0.062939994
250	0x3dcba267	0.09943085
251	0xbc7013a2	-0.014653118
252	0xbcc9cf43	-0.024634963
253	0xbdc44035	-0.09582559
254	0x3da1b44a	0.078957155
255	0x3dd32139	0.10309071

network_body._body_endoder.seq_layers.0.bias f4 [128]
0	0x3c2b8b39	0.010470205
1	0xbd612361	-0.05496538
2	0x3cf604ff	0.03003168
3	0xbcf88eee	-0.030341592
4	0xbb467ac9	-0.0030285588
5	0xbb830c7a	-0.00399929
6	0x3c2bd3da	0.010487521
7	0xb982f20f	-0.0002497588
8	0x3b5d3976	0.0033756173
9	0xbc4ab425	-0.012372051
10	0xbc727f3f	-0.014800846
11	0x3cfdfb3a	0.031003583
12	0x3d6f01ff	0.058351513
13	0xbc124192	-0.008926766
14	0xbda23400	-0.079200745
15	0xbe0a2377	-0.13490091
16	0xbc8421a9	-0.016129332
17	0x39527c77	0.00020073527
18	0x3d7f5670	0.062338293
19	0x3dbd5e6d	0.09246526
20	0x3d662082	0.056183346
21	0x3c5d1b54	0.013495285
22	0xbb4a6ff7	-0.003088949
23	0xbd2ab715	-0.041678507
24	0x3d1cdfc4	0.038299337
25	0x3da57b2a	0.08080132
26	0x3da35681	0.07975484
27	0xbd120799	-0.035651777
28	0x3d48e76a	0.04904882
29	0x3d0a63d3	0.033786606
30	0x3ce5f8a0	0.028072655
31	0x3ce0fb52	0.027463589
32	0x3ada4ef3	0.0016655609
33	0xbcca9270	-0.02472803
34	0xbd2a8913	-0.04163463
35	0x3c8efcb1	0.017454477
36	0x3cda1985	0.026623497
37	0x3d312444	0.043247476
38	0x3ba5117e	0.0050374856
39	0x3d4ff9c4	0.050775304
40	0x3d8b341b	0.06797048
41	0xbc12d5e6	-0.00896213
42	0x3d18d2a1	0.037310246
43	0x3d829c4e	0.06377469
44	0x3b1b6776	0.002371279
45	0x3c70ddd7	0.014701328
46	0x3bb8d63b	0.0056407726
47	0x3c8ed39f	0.017434893
48	0xbb6a03c3	-0.0035707809
49	0xbd43b709	-0.047781978
50	0x3d09e046	0.03366115
51	0xbd8aa99e	-0.06770633
52	0x3aee5531	0.0018183348
53	0x3d502625	0.050817627
54	0xbcbd3ee0	-0.02310127
55	0x3d0dc8e6	0.03461542
56	0x3c4c09da	0.012453521
57	0x3d09dcfc	0.033658013
58	0x3c64b2a6	0.013958609
59	0xbc0dedc0	-0.008662641
60	0xbcc2b622	-0.023768488
61	0x39dc0db9	0.00041971894
62	0x3db8e43a	0.09027906
63	0x3c9b9632	0.018992517
64	0x3d506cd7	0.050885048
65	0x3c09012d	0.008362097
66	0x3d93f11a	0.07223721
67	0x3d31e824	0.043434277
68	0x3d269d07	0.040677097
69	0x3c17ff7c	0.009277221
70	0x3ba0266b	0.0048873923
71	0x3c9620f4	0.01832626
72	0x3d58bb74	0.052913144
73	0x3c9bfbf7	0.019041045
74	0xbd371818	-0.044700712
75	0x3d0634b9	0.032765124
76	0x3b3b5dcf	0.002858985
77	0xbcfa11c0	-0.030526042
78	0x3d4b3f10	0.049620688
79	0x3d83ce7f	0.064358704
80	0x3c56fca4	0.013121758
81	0xbcf00286	-0.029298078
82	0xbd5482ab	-0.051882427
83	0xbd88fd1c	-0.06688902
84	0x3bdc2eb3	0.006719434
85	0x3d08ab7e	0.033366673
86	0x3d5f95c1	0.054586176
87	0xbd2fb874	-0.042900518
88	0x3c47a969	0.012186387
89	0xbcc2bbc3	-0.023771172
90	0x3da2c52c	0.07947764
91	0x3d47d322	0.048785336
92	0x3d50524a	0.050859727
93	0x3bdd5532	0.006754541
94	0xbd2898e1	-0.04116142
95	0x3d8cbdca	0.06872137
96	0x3d1bf976	0.0380797
97	0x3ba5fc6d	0.005065492
98	0x3cd08dde	0.025458273
99	0x3d14bb61	0.03631151
100	0x3d37b974	0.044854596
101	0xbd215ab6	-0.03939315
102	0xbd7d3d96	-0.06182631
103	0x3b8923ec	0.0041851904
104	0x3ccd9966	0.02509756
105	0x3d4084c9	0.047001634
106	0x3bd274f1	0.006422632
107	0x3daa8675	0.08326427
108	0xbd576874	-0.05258985
109	0x3d0e147b	0.0346875
110	0xbc7cf908	-0.015440233
111	0x3c8948da	0.016758371
112	0x3ce4badf	0.027921138
113	0x3cdfef14	0.027335681
114	0xbd0b62b2	-0.03402967
115	0xbc16900c	-0.009189617
116	0x3c5b0b65	0.013369416
117	0x3d872bf4	0.0660018
118	0x3c16eb80	0.009211421
119	0x3ceec488	0.029146448
120	0xbd6c4df7	-0.05769154
121	0x3793613c	1.7569044e-05
122	0xbd9d60d2	-0.07684483
123	0x3c7a3763	0.015271994
124	0x3c18169e	0.009282736
125	0x3d48e223	0.049043786
126	0x3c26c293	0.010178226
127	0x3d661daf	0.056180652

network_body._body_endoder.seq_layers.0.weight f4 [128, 91]
0	0xbe3d67a6	-0.1849657
1	0x3e2c1b84	0.16807371
2	0xbd625b91	-0.055263106
3	0x3d06b3f3	0.032886457
4	0x3d9ab23f	0.07553529
5	0xbda15e2c	-0.0787929
6	0x3db0e21b	0.08636876
7	0x3d3d3b18	0.046198934
8	0x3e4f898f	0.20267318
9	0x3cdae0e2	0.02671856
10	0x3df15e86	0.11785607
11	0xbc647843	-0.013944688
12	0xbd0d4a8d	-0.034494925
13	0xbd482fec	-0.048873827
14	0xbd2aabd5	-0.041667778
15	0xbe982a59	-0.2971981
16	0x3f326a9c	0.69693923
17	0xbd980391	-0.07422555
18	0xbe1a0dcb	-0.15044324
19	0x3e347394	0.17622215
20	0x3d087480	0.033314228
21	0x3d4523dc	0.0481299
22	0x3e1e8ec5	0.1548415
23	0xbd8fc0d0	-0.07019198
24	0xbd9645b8	-0.073375165
25	0xbd87e595	-0.06635586
26	0x3e91f446	0.28506678
27	0x3c7de279	0.01549589
28	0xbe0673d8	-0.13130128
29	0x3d9d37af	0.076766364
30	0xbdccbe36	-0.09997217
31	0x3c82b50f	0.015955476
32	0xbdd7ccb9	-0.105370946
33	0x3cbb8ec8	0.022895232
34	0x3c5efb3b	0.013609703
35	0xbdf736fa	-0.12071033
36	0x3e271e2e	0.16320106
37	0xbd1fad69	-0.038983736
38	0xbe3c11c9	-0.1836616
39	0x3d91ca96	0.07118718
40	0x3e371a83	0.17881207
41	0xbe467d18	-0.19383657
42	0x3d7836f7	0.060599294
43	0x3ddc6dca	0.10763128
44	0x3dbf95d6	0.09354751
45	0x3d0ad130	0.033890903
46	0x3e90fe74	0.28319132
47	0x3c83817c	0.016052954
48	0x3d13b46d	0.03606074
49	0xbd99c1be	-0.075076565
50	0x3ddc4fcd	0.10757408
51	0xbec610cb	-0.38684687
52	0x3da4333c	0.08017585
53	0x3e4b84eb	0.19874923
54	0x3dfc232a	0.123113945
55	0xbd2314a4	-0.039814606
56	0x3ef866e2	0.48515993
57	0x3d0409c0	0.03223586
58	0xbcabbf2a	-0.020965178
59	0x3e4f263b	0.20229428
60	0x3eac8adb	0.33699688
61	0xbecf8c9c	-0.40536964
62	0x3b0f2fdb	0.0021848592
63	0x3d27c07d	0.040955056
64	0x3e0549af	0.1301639
65	0x3d7c9890	0.061668932
66	0x3e1e7084	0.15472609
67	0xbd7198fa	-0.05898378
68	0xbc86a1c9	-0.016434567
69	0xbd85c816	-0.06532304
70	0x3ea5b1a8	0.32362103
71	0xbe8252df	-0.2545385
72	0x3d9aab82	0.07552244
73	0x3d98b9f4	0.07457343
74	0xbc43b0d9	-0.011944019
75	0xbc21f910	-0.009886041
76	0x3e839c8f	0.25705382
77	0x3d10693a	0.035256602
78	0x3d7cec5b	0.061748844
79	0xbd198241	-0.037477735
80	0x3ae567a1	0.0017502197
81	0x3d8517da	0.0649869
82	0xba4b9ae0	-0.00077669136
83	0xbe495fb8	-0.1966542
84	0x3ccab881	0.024746181
85	0xbdd3bb22	-0.10338427
86	0x3dc7159e	0.0972092
87	0xbd7869d1	-0.06064779
88	0x3da136c4	0.07871774
89	0xbdbc3259	-0.091892906
90	0x3d1d9f66	0.038482092
91	0x3d432065	0.047638316
92	0x3ea4f77a	0.3222006
93	0xbd2f0b74	-0.042735532
94	0xbd93299e	-0.07185672
95	0xbe4fbff6	-0.20288071
96	0xbd68d25c	-0.05684124
97	0x3e5c13ea	0.21491972
98	0x3d9ccb70	0.0765599
99	0x3dfceb2c	0.12349543
100	0xbd535d1d	-0.05160247
101	0x3e7a7779	0.24459638
102	0x3cdc26ae	0.026873913
103	0x3e2d5c5e	0.16929767
104	0xbe5f4408	-0.21803296
105	0xbe54f446	-0.20796308
106	0xbe7c5141	-0.24640371
107	0x3dae9d86	0.08526139
108	0xbc53eb67	-0.012934542
109	0xbde94df4	-0.113918215
110	0x3d63ad32	0.055585094
111	0x3d0bde45	0.03414752
112	0x3ee4c995	0.44685045
113	0x3e00661d	0.12538953
114	0xbe00b015	-0.1256717
115	0x3d23f4b3	0.040028285
116	0xbce4db42	-0.027936582
117	0x3e0d842e	0.13819954
118	0x3d317fba	0.0433347
119	0xbe0c544d	-0.13704033
120	0xbceb7cf1	-0.0287461
121	0xbe5caaf8	-0.21549594
122	0x3e4da00e	0.20080587
123	0x3cec8392	0.028871331
124	0xbddbb054	-0.10726991
125	0xbe57967a	-0.21053496
126	0xbd676892	-0.05649621
127	0x3c543165	0.01295123
128	0x3e00ccbb	0.12578098
129	0xbceb04bd	-0.028688783
130	0xbe86304e	-0.2620873
131	0xbd7c63b9	-0.06161854
132	0x3e6bf806	0.23043832
133	0x3d6c59b8	0.05770275
134	0x3d31f208	0.04344371
135	0x3aa67369	0.001269919
136	0x3e42766c	0.18990487
137	0xbd545c13	-0.05184562
138	0x3e85e91a	0.26154405
139	0xbda50c6f	-0.08059012
140	0xbe27b097	-0.16375957
141	0xbda5c505	-0.08094219
142	0xbe1ee9a7	-0.15518819
143	0x3be6e58c	0.007046407
144	0x3d9992c0	0.074986935
145	0xbe00b977	-0.12570749
146	0xbde1ae2a	-0.11019547
147	0x3e322c98	0.17399824
148	0xbdbf0250	-0.09326613
149	0x3dbbd5c1	0.0917163
150	0xbe701814	-0.23446685
151	0xbc1d87ac	-0.009614866
152	0xbeb9a065	-0.36255184
153	0xbd054612	-0.032537527
154	0xbd8d9880	-0.06913853
155	0xbde309a4	-0.11085823
156	0xbe2044ca	-0.15651241
157	0x3dcd9cff	0.1003971
158	0x3e0f0d13	0.13969831
159	0xbdc528db	-0.09626933
160	0xbcfa47ed	-0.030551875
161	0x3e02a83c	0.12759489
162	0xbe6f984b	-0.23397939
163	0xbdca54b4	-0.09879437
164	0xbdf1a64d	-0.117992975
165	0xbde75e11	-0.112972386
166	0x3e9027be	0.2815532
167	0xbda5b25b	-0.08090659
168	0x3d09695f	0.033547755
169	0x3e857876	0.26068467
170	0xbde8fac7	-0.11375957
171	0x3e053a13	0.13010435
172	0xbca620fb	-0.020279398
173	0xbe7d38d4	-0.2472871
174	0xbde7c0cf	-0.11316072
175	0xbe2a1936	-0.1661118
176	0xbdf0cf69	-0.1175831
177	0x3d0353f2	0.03206248
178	0xbe94f80a	-0.2909549
179	0x3dd02d22	0.101648584
180	0xbd943601	-0.07236863
181	0x3bb707fe	0.0055856695
182	0x3d8bff9e	0.068358645
183	0xbc9c9b95	-0.019117156
184	0x3e0f8d84	0.14018828
185	0xbdc8c732	-0.098036185
186	0x3d9fce6d	0.078030445
187	0x3e229c7e	0.1588001
188	0xbea22e40	-0.3167591
189	0xbe3ea10d	-0.18616123
190	0xbe2f1bf0	-0.17100501
191	0xbde5bdb8	-0.112178266
192	0xbd4ac19f	-0.049501058
193	0xbd86c9f3	-0.065814875
194	0xbe5d5d71	-0.21617676
195	0x3cc8f287	0.024529709
196	0xbd2d20f6	-0.042267762
197	0x3cea0cdc	0.028570585
198	0xbed8e1f2	-0.42359883
199	0x3dc67fb9	0.0969233
200	0x3cbcabd6	0.023031157
201	0x3e24fd31	0.1611221
202	0xbed84a5f	-0.4224424
203	0x3f3156b7	0.6927294
204	0x3ddb73e1	0.107154615
205	0xbe0501a0	-0.12988901
206	0x3d89b2ab	0.06723531
207	0x3e01632a	0.12635484
208	0xbead07a1	-0.33794883
209	0xbe53ef3e	-0.20696732
210	0xbd4cea4c	-0.05002813
211	0x3e2d6e4c	0.16936606
212	0x3da6635c	0.0812442
213	0x3eca6bb1	0.39535287
214	0xbd5a5afc	-0.053309426
215	0xbceddae8	-0.029035047
216	0x3e10bcca	0.14134517
217	0x3e21694e	0.15762827
218	0xbee0b5e8	-0.43888783
219	0x3daa4233	0.08313408
220	0x3e29f1e7	0.16596185
221	0x3de39d8d	0.11114035
222	0xbca43153	-0.02004305
223	0x3e8ed81e	0.2789926
224	0x3d281d93	0.04104383
225	0x3c9674d4	0.018366255
226	0x3ddf12fb	0.10892292
227	0x3e0f9da1	0.14024974
228	0xbed5300e	-0.41638225
229	0x3c34d49c	0.011037018
230	0x3c877397	0.01653461
231	0xbcc01038	-0.023445234
232	0xbde7be3b	-0.113155805
233	0x3e938466	0.2881195
234	0x3ba34b4e	0.0049833423
235	0xbd4c3784	-0.04985763
236	0xbc2277f9	-0.009916299
237	0x3e4a4fca	0.19757
238	0xbe597103	-0.21234517
239	0xbb984df9	-0.004647967
240	0x3e38e63e	0.1805658
241	0x3d9e882b	0.07740816
242	0x3e0c2dfb	0.13689415
243	0xbde4d2e1	-0.111730345
244	0xbdb2dbf5	-0.0873336
245	0xbc71973a	-0.014745528
246	0x3df7fa02	0.12108232
247	0x3e299983	0.16562466
248	0x3c7c1b13	0.015387314
249	0xbdc79716	-0.09745614
250	0xbddf70c4	-0.1091018
251	0xbe3df334	-0.18549806
252	0xbe1935c1	-0.14961912
253	0x3e05eb7c	0.13078111
254	0xbe088e7e	-0.13335606
255	0xbd88f684	-0.06687644

network_body._body_endoder.seq_layers.2.bias f4 [128]
0	0x3dd7ff64	0.10546759
1	0x3da7cc12	0.0819322
2	0xbbf30a0d	-0.0074169696
3	0x3cd87430	0.02642259
4	0x3d170e34	0.03687878
5	0x3d693d4d	0.056943227
6	0x39f8d226	0.0004745882
7	0x3ce88427	0.028383328
8	0xbcc99ee8	-0.024611905
9	0x3c5838a9	0.013197103
10	0x3d2aadce	0.04166966
11	0xbc8b63a1	-0.01701528
12	0x3d480eb6	0.048842154
13	0x3c8646d1	0.01639119
14	0x3d9ace9b	0.07558938
15	0x3cc5fac5	0.024167428
16	0x3c94ffd4	0.018188395
17	0x3d6fcd85	0.058545608
18	0x3c31349f	0.0108157685
19	0x3d5815dd	0.052755225
20	0x3c3a5ed8	0.011375152
21	0x3d190a0a	0.03736309
22	0xb94d7bfa	-0.00019596508
23	0x3d37ced0	0.044874966
24	0x3d00c924	0.031441823
25	0x3ba0e38e	0.004909939
26	0x3d1a9d20	0.037747502
27	0x3cf3a7ec	0.029743157
28	0x3d33715d	0.043809284
29	0xbcf14ea4	-0.029456444
30	0x3c9c7ee9	0.019103484
31	0xbaf30c44	-0.0018543084
32	0x3cc8b830	0.02450189
33	0xbaf9211a	-0.0019007057
34	0x3d126627	0.03574195
35	0x3d427c47	0.0474818
36	0x3add6560	0.0016891174
37	0xbaa31ca7	-0.0012444452
38	0x3d50c095	0.05096491
39	0x3c84d3e0	0.016214311
40	0xbc9508f5	-0.018192748
41	0xbc82cfe2	-0.015968267
42	0x3bbadf0e	0.0057028597
43	0x3d966570	0.073435664
44	0x3cd3fdc8	0.025877848
45	0x3d5a4211	0.053285662
46	0x3c7761eb	0.015099029
47	0xbb16ec87	-0.0023029165
48	0x3c3a6d2c	0.011378568
49	0xbcbeed5d	-0.023306543
50	0x3d3ef57c	0.04662083
51	0xbbbcd6d7	-0.0057629156
52	0xbc547eb4	-0.0129696615
53	0x3c956227	0.01823528
54	0x3c3144e6	0.010819649
55	0x3d5c04a1	0.053715352
56	0xbbc3327c	-0.005956946
57	0x3d0573e8	0.03258124
58	0x3c3a6bc8	0.011378236
59	0x3c392b08	0.011301763
60	0x3c19b0df	0.009380548
61	0x3d1e0e67	0.038587954
62	0xb9e79c82	-0.0004417636
63	0x3cf6e816	0.030139964
64	0x3d113e71	0.03545994
65	0x3d301e40	0.0429976
66	0x3c512681	0.012765528
67	0xbb207df9	-0.0024489148
68	0x3d44faa7	0.048090603
69	0x3c57a388	0.0131615475
70	0x3c5ef615	0.013608475
71	0x3d082674	0.033239797
72	0x3d9282b6	0.071538374
73	0x3d50faa8	0.051020294
74	0x3c6a174b	0.01428778
75	0x3d9d1c0a	0.07671364
76	0x3d9d9682	0.07694723
77	0x3d196eee	0.037459306
78	0x3c6354ee	0.013875229
79	0x3d371bab	0.04470412
80	0xbb87ddc9	-0.004146312
81	0x3ca3aca6	0.019979786
82	0x3c356544	0.011071507
83	0x3b8a2f6f	0.0042170803
84	0x3c8421b6	0.016129356
85	0x3c1bfd01	0.00952077
86	0x3d0f6acf	0.03501397
87	0xbbe395cc	-0.0069453474
88	0x3cc06b68	0.023488715
89	0x3ccc6bdd	0.024953777
90	0x3c84e500	0.016222477
91	0x3cbc4b26	0.022985052
92	0x3c657582	0.014005067
93	0xbd347a20	-0.04406178
94	0x3d0dfba8	0.034663826
95	0x3c4c6f93	0.012477773
96	0x3d591854	0.053001717
97	0xbcc41af6	-0.023938637
98	0xbc833909	-0.016018407
99	0x3d3a6f72	0.04551644
100	0x3d326f01	0.043562893
101	0x3cd7381c	0.026271872
102	0xbbcc1fc6	-0.0062293736
103	0x3d7c75c3	0.061635744
104	0x3c985842	0.018596772
105	0xbc6a34ba	-0.014294798
106	0x3bd63301	0.006536842
107	0xba867548	-0.0010258341
108	0x3c4a5779	0.012349957
109	0x3c86c006	0.016448986
110	0x3caa3c11	0.020780595
111	0x3a65d190	0.0008766884
112	0x3d645bba	0.05575154
113	0x3c94a78d	0.0181463
114	0x3ce7e81d	0.028308922
115	0x3d64fe92	0.05590684
116	0x3c70c9ca	0.014696548
117	0xbcc0dee0	-0.023543775
118	0x3cbd2bd6	0.023092192
119	0x3d1dc22e	0.038515262
120	0x3cb4cd42	0.02207053
121	0x3c5dbe6a	0.013534168
122	0xbae241ea	-0.0017262076
123	0x3d9ae158	0.07562512
124	0x3d32f04c	0.043686196
125	0xbd53a7b7	-0.051673617
126	0x3d4211f8	0.047380418
127	0x3d291f46	0.04128959

network_body._body_endoder.seq_layers.2.weight f4 [128, 128]
0	0x3cb43e81	0.02200246
1	0x3d3692ff	0.04457378
2	0x3d2a7cea	0.041623034
3	0xbd559f65	-0.052153964
4	0xbd2cca11	-0.042184893
5	0xbe415e1f	-0.1888356
6	0x3e2a76ff	0.16646956
7	0xbc0f86ff	-0.008760213
8	0x3e5bf717	0.21480976
9	0xbcfd9711	-0.030955823
10	0xbd6b3a78	-0.057428807
11	0xbe173f9e	-0.14770362
12	0x3de49892	0.11161913
13	0x3dda508e	0.10659896
14	0xbe008233	-0.12549667
15	0xbd5931c8	-0.05302599
16	0xbdd58526	-0.10425787
17	0xbb2b14c7	-0.0026104914
18	0xbcfb0357	-0.030641241
19	0x3d2f301f	0.0427705
20	0xbd7402b0	-0.059572875
21	0x3d54f86a	0.05199472
22	0xbd65ed72	-0.05613465
23	0x3da7c0d6	0.081910774
24	0x3ba6ae8f	0.005086727
25	0x3e18810a	0.14892974
26	0xbc663516	-0.014050743
27	0xbc47bb2b	-0.01219062
28	0x3e0b400c	0.1359865
29	0x3e096b8c	0.13419932
30	0x3e20a66a	0.15688482
31	0xbea678e0	-0.32514095
32	0xbe098a30	-0.1343162
33	0x3e80dd2c	0.2516874
34	0x3cdd2b62	0.026998226
35	0x3d3bd62b	0.045858543
36	0x3cbbe2a4	0.02293522
37	0x3db58641	0.088634975
38	0x3dd5670f	0.104200475
39	0x3e8860a6	0.26636237
40	0xbdf08a5e	-0.117451414
41	0x3ddff27e	0.109349236
42	0x3d94dcce	0.07268678
43	0x3e2c5e8e	0.16832945
44	0x3d24a958	0.04020056
45	0xbc4684ef	-0.012116655
46	0x3dee284f	0.11628782
47	0xbe253fbf	-0.16137598
48	0x3d9c0875	0.076188006
49	0x3c9fb57b	0.019495716
50	0x3e36aae0	0.17838621
51	0xbc698b67	-0.0142544275
52	0x3d099784	0.033591762
53	0x3e830d75	0.25596204
54	0xbddeebe5	-0.10884837
55	0xbd36582d	-0.044517685
56	0x3d8c3a50	0.0684706
57	0xbdd4aeb7	-0.10384887
58	0xbb94c6e5	-0.0045403116
59	0x3d77b6cb	0.06047706
60	0x3d80bc33	0.06285896
61	0x3b0c202e	0.0021381485
62	0xbdc552ea	-0.09634955
63	0xbe057c84	-0.1303578
64	0xbdf2db82	-0.11858274
65	0xbe0506cf	-0.12990879
66	0x3e0b4942	0.13602164
67	0x3d44519f	0.047929402
68	0x3e1735ab	0.14766566
69	0xbd617f93	-0.055053305
70	0xbd4ca110	-0.04995829
71	0xbce718ff	-0.028210161
72	0x3e340c75	0.17582877
73	0xbe859ee1	-0.26097777
74	0x3da7db8f	0.08196174
75	0xbe47b416	-0.19502291
76	0x3d2f47ae	0.04279297
77	0x3cf41cde	0.029798921
78	0xbdc66d92	-0.09688868
79	0xbdb8bf5a	-0.090208724
80	0xbb637585	-0.0034707498
81	0xbd8c22bf	-0.06842565
82	0x3e09d127	0.13458692
83	0xbe23ee5a	-0.16008893
84	0xbe0242d0	-0.127208
85	0x3d1d5fe1	0.038421515
86	0x3c789513	0.015172261
87	0x3db29f14	0.08721748
88	0xbd944508	-0.07239729
89	0xbe43995b	-0.19101469
90	0x3d56fafa	0.052485444
91	0x3e59f4c0	0.21284771
92	0x3e529860	0.20565939
93	0xbcb6d16e	-0.02231666
94	0xbc74e3bb	-0.014946873
95	0xbd13f43f	-0.036121603
96	0xbd98de9a	-0.07464333
97	0xbd835067	-0.0641182
98	0xbd6708b4	-0.056404784
99	0xbc9f5731	-0.019450756
100	0x3d52259d	0.051305402
101	0xbe02b741	-0.12765218
102	0x3ca51e0b	0.020155927
103	0x3ca3f323	0.020013398
104	0xbe3c6d9c	-0.18401188
105	0x3c0a5935	0.00844412
106	0xbd89d8a9	-0.06730778
107	0x3d952838	0.07283062
108	0xbd385300	-0.04500103
109	0x3e19af7f	0.15008353
110	0xbdb68f30	-0.089140296
111	0xbe29d42a	-0.1658484
112	0xbe18e14a	-0.14929691
113	0xbe0aa39b	-0.13538973
114	0xbdef0e2f	-0.11672627
115	0x3e4d9836	0.20077595
116	0x3d133628	0.03594032
117	0xbd5cad27	-0.05387607
118	0xbd7c6312	-0.06161792
119	0xbbefcf4e	-0.007318414
120	0xbe521381	-0.20515253
121	0x3e22ac3e	0.15886018
122	0xba960c81	-0.0011447818
123	0x3e01064f	0.12600063
124	0x3d74f33a	0.05980227
125	0x3d89a792	0.067214146
126	0xbd24aa29	-0.04020134
127	0x3ddfd41c	0.109291285
128	0xbda1a573	-0.07892885
129	0xbd53210d	-0.05154519
130	0xbc1fabb2	-0.009745525
131	0xbccd0e06	-0.025031101
132	0xbe1b2824	-0.15152031
133	0xbdd1ea97	-0.102498226
134	0x3da00b2e	0.07814632
135	0x3c2f912e	0.010715766
136	0x3de6fef6	0.11279099
137	0xbbbb8deb	-0.005723705
138	0xbd5275f1	-0.05138201
139	0xbd758634	-0.05994244
140	0x3c1dfe96	0.009643218
141	0x3d3f5e97	0.046721067
142	0x3c767b77	0.015044085
143	0x3daf216d	0.08551297
144	0x3dd805f4	0.105480105
145	0xbc436aee	-0.0119273495
146	0x3dd9c191	0.10632623
147	0xbbeb2a87	-0.0071767005
148	0xbb520391	-0.0032045583
149	0xbdb6c482	-0.089242
150	0x3c46b649	0.012128421
151	0xbe08ea62	-0.1337066
152	0xbce382f6	-0.027772408
153	0x3e53a7f4	0.20669538
154	0xbe4ee1b6	-0.2020329
155	0x3d58cec0	0.052931547
156	0xbce0297d	-0.027363533
157	0x3e0212da	0.12702504
158	0x3ea761a7	0.3269169
159	0xbcd6e48c	-0.026232027
160	0xbb91fd28	-0.0044552274
161	0x3c4ed3ea	0.012623766
162	0x3cbfdbe4	0.023420282
163	0x3dad0be3	0.08449533
164	0x3d0c17b3	0.03420229
165	0x3e80299a	0.2503174
166	0x3e37519f	0.1790223
167	0x3e8b4238	0.27198958
168	0xbd995f22	-0.07488848
169	0xbdbd0fcf	-0.09231531
170	0xbdff7917	-0.12474268
171	0x3e0df7a3	0.13863997
172	0x3bd029d6	0.0063526435
173	0xbc5acda8	-0.013354696
174	0x3de03a19	0.10948581
175	0xbc6d354f	-0.014478042
176	0xbdae5a5c	-0.085133284
177	0x3bddb63f	0.00676611
178	0x3cde43fb	0.027132025
179	0x3c3cc370	0.011521205
180	0xbe346fd8	-0.1762079
181	0xbd216502	-0.03940297
182	0xbd373419	-0.04472742
183	0x3e5352dd	0.20637079
184	0xbd609d64	-0.0548376
185	0xbd862c2c	-0.06551394
186	0x3e184340	0.14869404
187	0x3da11650	0.07865584
188	0x3ca7dc49	0.020490782
189	0x3dee5ecc	0.11639175
190	0xbd2747ac	-0.040839836
191	0xbe8acb73	-0.27108344
192	0xbde972bf	-0.11398839
193	0xbe81ca36	-0.25349587
194	0x3daf3e99	0.085568614
195	0x3e148f08	0.14507687
196	0x3d998b54	0.07497278
197	0x3db15fd4	0.08660856
198	0x3cb6ef78	0.022330984
199	0x3dac59cc	0.08415565
200	0x3e9f6aed	0.31136265
201	0xbdffdb9f	-0.12493061
202	0x3d96dc9d	0.073662974
203	0xbdcb28d7	-0.09919899
204	0xbd3d8982	-0.046273716
205	0x3d7f8d19	0.06239042
206	0xbe39c545	-0.18141659
207	0xbc7ecab0	-0.015551254
208	0xbcbe7f5d	-0.02325409
209	0xbd82a1a9	-0.063784905
210	0x3e258e4c	0.16167563
211	0x3ac69ffa	0.0015153878
212	0xbde8456b	-0.113413654
213	0x3dcd905e	0.100373015
214	0x3db1a7d1	0.086745866
215	0x3da4d078	0.08047575
216	0x3d9593a0	0.07303548
217	0xbe6b1d31	-0.22960354
218	0xbe4f1e30	-0.2022636
219	0x3e1ad4be	0.15120217
220	0xbd39c802	-0.045356758
221	0x3c6f3419	0.014599823
222	0x3d9ecb4c	0.077536196
223	0xbc5f72f2	-0.013638245
224	0x3cf73644	0.030177243
225	0xbd5a7bbb	-0.053340655
226	0xbcb9e039	-0.022689926
227	0xbeaa61be	-0.33277696
228	0x3b4aad65	0.0030926105
229	0xbd4a2103	-0.04934789
230	0x3d49d5db	0.049276214
231	0xbc4f987e	-0.012670634
232	0xbd9530ae	-0.072846755
233	0x3da1f369	0.07907755
234	0xbe4611d2	-0.19342735
235	0x3e40b4af	0.18818925
236	0xbcebf476	-0.028803091
237	0xbd08d1a5	-0.033403058
238	0x3dca38ad	0.09874091
239	0xbdbb75ba	-0.09153314
240	0xbd86f0c7	-0.065888934
241	0x3c488b71	0.012240277
242	0xbdd98d9e	-0.106227145
243	0xbc5df545	-0.013547246
244	0x3cd857ed	0.026409114
245	0xbe4147be	-0.18875024
246	0xbd3166b7	-0.043310847
247	0x3e77b67d	0.24190708
248	0xbe0b4c93	-0.1360343
249	0xbd46cd33	-0.048535537
250	0xbd301c2e	-0.042995624
251	0x3dd7d952	0.105394974
252	0xbcfedc15	-0.031110803
253	0xbe3e0116	-0.18555102
254	0x3a599fd4	0.00083017093
255	0x3e289e89	0.16466726
